resnet24_se.pt (torch, 999986 bytes, 152 tensors)

weight f4 [2, 1, 16]
-0.9083883 0.48106843 0.8508647 0.06286979 -0.42904392 0.010170894 0.1871504 0.10695534
-0.15950343 -0.33341342 -0.24393441 0.26419428 0.6208003 -0.022611588 -0.7247744 -0.6874469
1.1640604 1.1363313 0.51610655 -0.13906123 0.13752712 -0.050594952 -0.4588222 -0.114971064
0.605727 0.41599092 -0.08680775 -0.010490918 0.2945597 -0.37888017 -0.9888507 -0.7018417
00000000: 238c 68bf 9a4e f63e 45d2 593f e0c1 803d
00000010: a5ab dbbe d2a3 263c 5ba4 3f3e 670b db3d
00000020: de54 23be 2ab5 aabe f1c9 79be 7944 873e
00000030: c5ec 1e3f f03b b9bc d18a 39bf 85fc 2fbf
00000040: eeff 943f 4e73 913f 8f1f 043f 1166 0ebe
00000050: e9d3 0c3e a73c 4fbd beea eabe f375 ebbd
00000060: ed10 1b3f c3fc d43e 43c8 b1bd 19e2 2bbc
00000070: 87d0 963e 95fc c1be 5225 7dbf e6ab 33bf

weight f4 [2]
1.2885783 1.1368574
00000000: 22f0 a43f 8b84 913f

bias f4 [2]
0.3737307 0.50798106
00000000: a159 bf3e 0c0b 023f

running_mean f4 [2]
1.2555514e-05 1.39259055e-05
00000000: 86a5 5237 4fa3 6937

running_var f4 [2]
0.008141427 0.0037516514
00000000: 9f63 053c 44de 753b

weight f4 [4, 2, 4]
0.3724845 -0.16246797 0.12550688 0.2988308 -0.11537724 -0.17400602 0.559254 0.34627286
-0.59286076 0.08971801 0.4010786 -0.17112286 0.5166296 0.12407732 -0.5650331 -0.22580004
0.42728183 -0.38976315 -0.48667783 -0.7012679 0.08499972 0.2743638 0.07493625 -0.18074727
0.12895611 0.5922557 0.26441842 -0.6918603 -0.46830246 0.4144444 0.12282608 -0.20701355
00000000: 4ab6 be3e 015e 26be e084 003e 5a00 993e
00000010: e74a ecbd a22e 32be 452b 0f3f ad4a b13e
00000020: b9c5 17bf 13be b73d 2d5a cd3e d53a 2fbe
00000030: d641 043f 401c fe3d 02a6 10bf 2038 67be
00000040: afc4 da3e 098f c7be d62d f9be 4b86 33bf
00000050: 5514 ae3d 6979 8c3e 2d78 993d d015 39be
00000060: 120d 043e 129e 173f da61 873e c21d 31bf
00000070: 57c5 efbe 0e32 d43e 3d8c fb3d 5cfb 53be

weight f4 [4]
0.8437273 1.1717807 1.1913724 1.1540728
00000000: 83fe 573f e9fc 953f e47e 983f a8b8 933f

bias f4 [4]
0.11077825 -0.09728282 0.15336598 0.17830268
00000000: b5df e23d 373c c7bd f90b 1d3e fa94 363e

running_mean f4 [4]
0.78670895 -0.26230192 -0.5192156 0.08626728
00000000: c265 493f 704c 86be 50eb 04bf e6ac b03d

running_var f4 [4]
0.60040504 0.7464263 1.4908828 1.562685
00000000: 25b4 193f cb15 3f3f 3fd5 be3f 1006 c83f

weight f4 [4, 4, 4]
-0.13146 -0.06970937 -0.5015561 -0.23841307 -0.37703177 0.13075764 -0.12838289 0.34604642
0.21004911 0.21406442 0.0797189 -0.016221978 -0.06970626 0.030271625 0.031663902 -0.18558937
0.29820365 -0.10879956 0.11252669 -0.23634078 0.5889205 -0.2877584 0.38503188 0.014096608
0.4228264 0.014479431 0.06140431 -0.34665596 -0.08531205 -0.3719216 -0.5912688 -0.088843666
-0.08455451 -0.24391726 -0.096250854 0.15568809 0.3388233 -0.1207282 0.046333224 -0.05509438
-0.4558644 -0.11845936 0.11820044 0.3735396 -0.20335959 0.31310183 0.14734264 -0.20686208
-0.30391777 0.22937158 -0.15205291 0.033531897 -0.015675021 -0.5077802 -0.39051083 0.11925995
-0.06642144 -0.5179597 -0.013310748 0.1432357 0.09433547 -0.16022173 0.11366165 0.42630973
00000000: 739d 06be c9c3 8ebd fb65 00bf 8e22 74be
00000010: 4f0a c1be 55e5 053e ce76 03be ff2c b13e
00000020: 1d17 573e b433 5b3e aa43 a33d f4e3 84bc
00000030: 28c2 8ebd 33fc f73c 02b2 013d 240b 3ebe
00000040: 26ae 983e 4ed2 debd 6574 e63d 5103 72be
00000050: 7ec3 163f 1255 93be e622 c53e 76f5 663c
00000060: b47c d83e 233b 6d3c 1683 7b3d e47c b1be
00000070: 16b8 aebd 826c bebe 645d 17bf abf3 b5bd
00000080: ea2a adbd 72c5 79be 2b1f c5bd b36c 1f3e
00000090: 3f7a ad3e 5940 f7bd e8c7 3d3d a5aa 61bd
000000a0: 0f67 e9be d29a f2bd 1313 f23d 9540 bf3e
000000b0: 7f3d 50be e24e a03e fde0 163e a7d3 53be
000000c0: 1c9b 9bbe 62e0 6a3e c2b3 1bbe be58 093d
000000d0: e768 80bc e2fd 01bf 09f1 c7be 903e f43d
000000e0: f707 88bd 0299 04bf 5315 5abc 61ac 123e
000000f0: f432 c13d 2a11 24be 70c7 e83d 4545 da3e

weight f4 [4]
1.1345187 1.0402012 1.1443278 0.9533669
00000000: e937 913f 5025 853f 5579 923f da0f 743f

bias f4 [4]
0.22679882 0.07405915 -0.036630504 -0.035258673
00000000: f33d 683e 53ac 973d de09 16bd 666b 10bd

running_mean f4 [4]
-0.14423494 -0.21921569 -0.030901084 -0.2880737
00000000: 53b2 13be 147a 60be 4524 fdbc 657e 93be

running_var f4 [4]
0.527106 0.8643335 0.6521012 0.62528974
00000000: 6bf0 063f f644 5d3f 1bf0 263f fd12 203f

weight f4 [4, 2, 1]
0.5936369 0.57899106 0.0121172285 -0.68650025 -0.15943848 -0.6602262 -0.4482433 -0.35851353
00000000: 96f8 173f c238 143f 5787 463c 7bbe 2fbf
00000010: d743 23be 9604 29bf 2580 e5be 168f b7be

weight f4 [4]
0.8319426 0.7931553 1.2202091 1.1329466
00000000: 31fa 543f 3a0c 4b3f d02f 9c3f 6504 913f

bias f4 [4]
0.32276773 0.121175274 0.11117288 -0.07561907
00000000: d041 a53e be2a f83d 9bae e33d 2cde 9abd

running_mean f4 [4]
0.739534 -0.44943297 -0.5342868 -0.50608087
00000000: 1a52 3d3f 141c e6be 05c7 08bf 848e 01bf

running_var f4 [4]
0.69209176 0.3162819 0.37083498 0.33404517
00000000: ed2c 313f b4ef a13e 15de bd3e f807 ab3e

weight f4 [2, 4]
0.25932062 0.30099782 0.29876617 0.14540195 0.40511033 0.11083308 -0.45471463 0.24953035
00000000: acc5 843e 631c 9a3e e1f7 983e 40e4 143e
00000010: 9f6a cf3e 74fc e23d 5bd0 e8be e284 7f3e

weight f4 [4, 2]
0.29997548 0.5973444 0.6400706 0.36815834 -0.42892966 0.47736424 -0.40150937 0.31896624
00000000: 6396 993e 90eb 183f abdb 233f 407f bc3e
00000010: ab9c dbbe 1669 f43e a392 cdbe 8b4f a33e

weight f4 [4, 4, 4]
0.0040573254 -0.28338367 -0.19779508 0.19585145 0.026767919 0.0010660611 -0.1388353 -0.12988521
-0.48580915 0.058180634 0.3084524 0.28893346 -0.075182974 0.29975545 0.44525823 -0.1430798
0.053875916 0.0059419856 -0.100965396 -0.09195982 0.109830916 0.20421588 0.26034647 -0.2651638
-0.27755126 -0.25925064 0.06299787 0.348317 0.15886894 -0.15962496 0.6407504 0.077622466
0.12789191 0.11013153 0.32281336 -0.22308001 -0.22900978 0.14432779 -0.16181274 -0.08376029
-0.31372043 -0.20556816 -0.15321517 0.3451978 -0.21701667 -0.0898391 0.31585768 -0.1956495
0.29885495 0.14006357 -0.18028957 0.36541742 -0.1404775 0.054242678 0.2955082 0.19571453
-0.34023607 -0.25037616 0.28685912 0.35432866 0.10747275 -0.16042548 0.15809248 0.0315755
00000000: 50f3 843b aa17 91be cb8a 4abe 488d 483e
00000010: 6548 db3c 13bb 8b3a d72a 0ebe a100 05be
00000020: fabb f8be d14e 6e3d 79ed 9d3e 16ef 933e
00000030: 88f9 99bd 8c79 993e e3f8 e33e 8383 12be
00000040: feac 5c3d fdb4 c23b f2c6 cebd 6e55 bcbd
00000050: 08ef e03d f81d 513e 224c 853e 8dc3 87be
00000060: 331b 8ebe 80bc 84be 0705 813d 9b56 b23e
00000070: 8aae 223e ba74 23be 3808 243f 87f8 9e3d
00000080: 19f6 023e a48c e13d cb47 a53e 166f 64be
00000090: 8a81 6abe aaca 133e 3db2 25be 848a abbd
000000a0: f79f a0be 7680 52be 70e4 1cbe c4bd b03e
000000b0: 9e39 5ebe 90fd b7bd 19b8 a13e 5858 48be
000000c0: 8403 993e d36c 0f3e d49d 38be fe17 bb3e
000000d0: 55d9 0fbe 922d 5e3d da4c 973e 6469 483e
000000e0: 6c33 aebe 4e31 80be 33df 923e 916a b53e
000000f0: ac1a dc3d 9446 24be ffe2 213e 5055 013d

weight f4 [4]
1.1627941 1.0753349 0.84418523 1.0197428
00000000: 70d6 943f 93a4 893f 861c 583f ef86 823f

bias f4 [4]
0.09161396 0.08099039 -0.027142575 0.060591884
00000000: 1aa0 bb3d 4ade a53d 1b5a debc 322f 783d

running_mean f4 [4]
0.043592095 0.25149792 -0.16852024 0.595458
00000000: a08d 323d 56c4 803e 9290 2cbe ef6f 183f

running_var f4 [4]
1.0488424 0.6632989 0.4517202 0.5538475
00000000: 7840 863f f5cd 293f df47 e73e f3c8 0d3f

weight f4 [4, 4, 4]
-0.11638245 0.40252697 0.11856347 -0.27842185 0.3414471 -0.049051873 -0.16241586 -0.17435512
-0.05568316 0.04937756 -0.109510854 -0.26596153 0.065198526 0.022299066 -0.14942394 -0.1495996
-0.34234008 -0.5355708 -0.26407337 -0.21623245 -0.37910095 -0.03077027 -0.1510143 -0.2761369
0.03896346 -0.02258975 0.110446826 -0.33813927 -0.074395046 -0.14060888 0.0670009 -0.47162142
0.03227442 0.13356923 0.1813918 -0.079466276 -0.097000234 0.18441656 -0.14035633 -0.5062387
-0.17323202 -0.08920611 -0.15819582 -0.26419976 0.2876233 -0.43286157 -0.08095159 -0.21244666
0.17148453 0.30975714 -0.13637671 -0.31648213 0.053087413 -0.2080778 -0.2634644 -0.092796676
0.06553932 -0.107545376 0.29853502 0.12029586 0.15128274 -0.09947627 0.17705764 0.3996639
00000000: ec59 eebd 0418 ce3e 68d1 f23d 4f8d 8ebe
00000010: 27d2 ae3e 9eea 48bd 5850 26be 268a 32be
00000020: 0614 64bd 2040 4a3d 3a47 e0bd 1c2c 88be
00000030: ce86 853d 88ac b63c 9702 19be a330 19be
00000040: 3347 afbe 2b1b 09bf a034 87be 0a6c 5dbe
00000050: 8519 c2be ef11 fcbc 7ea3 1abe d161 8dbe
00000060: 2698 1f3d 240e b9bc f231 e23d 9720 adbe
00000070: 6e5c 98bd c6fb 0fbe c537 893d 5d78 f1be
00000080: 2f32 043d 5fc6 083e c6be 393e 37bf a2bd
00000090: 0fa8 c6bd b2d7 3c3e 92b9 0fbe dc98 01bf
000000a0: bc63 31be b1b1 b6bd 16fe 21be 3145 87be
000000b0: 5c43 933e 08a0 ddbe f2c9 a5bd 9e8b 59be
000000c0: a499 2f3e 7d98 9e3e 56a6 0bbe f209 a2be
000000d0: 3072 593d 5912 55be cee4 86be 2f0c bebd
000000e0: 7b39 863d c040 dcbd 95d9 983e ad5d f63d
000000f0: dde9 1a3e 37ba cbbd 994e 353e bfa0 cc3e

weight f4 [4]
0.8799902 0.9046043 1.1302274 1.0343018
00000000: 0a47 613f 2694 673f 4bab 903f 0064 843f

bias f4 [4]
-0.05737924 0.026684416 0.11736445 -0.15609168
00000000: 7e06 6bbd 4799 da3c c65c f03d 7fd6 1fbe

running_mean f4 [4]
-0.16713572 -1.4029073 -0.5303307 0.15850005
00000000: a025 2bbe 7792 b3bf c1c3 07bf d64d 223e

running_var f4 [4]
0.9554865 0.78563476 0.6485021 0.4337011
00000000: c39a 743f 5c1f 493f 3c04 263f 120e de3e

weight f4 [2, 4]
0.02199574 0.1478934 -0.3449523 0.2707339 0.14495516 0.34091136 -0.4544321 -0.42057818
00000000: 6930 b43c 5e71 173e 969d b0be a29d 8a3e
00000010: 206f 143e ef8b ae3e 53ab e8be 0656 d7be

weight f4 [4, 2]
0.38243708 -0.5607595 0.270271 0.59935766 0.23066956 0.48277232 -0.109437995 -0.2075935
00000000: cbce c33e ef8d 0fbf f660 8a3e 816f 193f
00000010: a434 6c3e ef2d f73e 0721 e0bd 6493 54be

weight f4 [8, 4, 4]
0.22412144 -0.41944104 -0.12153731 -0.08256453 0.056613233 -0.21567167 -0.29979464 0.13500737
0.06307906 -0.40893197 -0.025990937 0.4351353 -0.0682776 -0.0032237351 -0.29518124 0.239818
-0.087172754 0.07043962 0.37173218 0.14534718 -0.045732442 -0.012472108 -0.23877794 0.14596735
0.12598193 -0.17570904 -0.11304133 0.07754708 0.12771387 -0.093504556 0.16992506 0.11701906
0.005620588 -0.31533423 -0.014470903 -0.04554543 -0.29740393 0.16526249 -0.0504788 0.24981077
0.19687061 0.16257025 0.13195527 -0.021593994 -0.1898903 0.23032665 0.109098226 -0.18564369
-0.22466406 0.15794061 -0.017598528 -0.18252291 -0.02057601 0.03938282 0.09413715 0.11351147
0.21689105 0.16871881 -0.11087007 -0.32199946 -0.20140696 0.09817706 0.019341303 0.34646153
-0.08111702 -0.18395309 -0.22993769 0.16269876 0.17555796 -0.3749487 0.08737949 -0.004013515
-0.18218721 -0.061882883 0.09548031 -0.18244746 -0.001183766 -0.16888136 -0.22521916 -0.2660286
0.14000277 0.19849011 0.11105991 0.1565532 -0.12066174 -0.35437 0.03687144 -0.06200071
0.20115548 -0.19135465 0.10329324 0.23684148 -0.21554579 -0.028857967 -0.047986876 0.26785153
0.24315654 0.025859207 0.17317176 0.11852633 -0.051160377 -0.11877812 0.10805041 -0.06800403
0.15767199 -0.06517398 0.15720585 0.011027935 0.17063127 0.16023108 0.11013429 0.050835196
-0.12723784 -0.0014413199 -0.03797997 -0.08357216 0.04750843 0.16666156 -0.09557835 -0.24194218
0.33827975 0.1198072 0.095780775 0.09357851 0.09923688 -0.13127437 0.2737063 0.276937
00000000: 1780 653e fac0 d6be 8ee8 f8bd 9817 a9bd
00000010: 47e3 673d 09d9 5cbe af7e 99be 5f3f 0a3e
00000020: 982f 813d 885f d1be f2ea d4bc 0eca de3e
00000030: 20d5 8bbd 4d45 53bb ff21 97be da92 753e
00000040: a187 b2bd a642 903d ae53 be3e e4d5 143e
00000050: f151 3bbd d057 4cbc 3482 74be 7778 153e
00000060: 6801 013e 12ed 33be 3682 e7bd 01d1 9e3d
00000070: 6dc7 023e 517f bfbd d600 2e3e b0a7 ef3d
00000080: e92c b83b 7d73 a1be 5e17 6dbc d88d 3abd
00000090: 5445 98be 923a 293e dcc2 4ebd 65ce 7f3e
000000a0: 7398 493e d178 263e 481f 073e e3e5 b0bc
000000b0: 9a72 42be c0da 6b3e e46e df3d 6119 3ebe
000000c0: 560e 66be 2fbb 213e ca2a 90bc 49e7 3abe
000000d0: 058f a8bc e14f 213d faca c03d b478 e83d
000000e0: b018 5e3e a0c4 2c3e d90f e3bd 1ddd a4be
000000f0: a03d 4ebe 0e11 c93d a771 9e3c 6863 b13e
00000100: ae20 a6bd 335e 3cbe c974 6bbe 819a 263e
00000110: 77c5 333e 47f9 bfbe 05f4 b23d ce83 83bb
00000120: 498f 3abe e878 7dbd 2e8b c33d 82d3 3abe
00000130: 9928 9bba 3cef 2cbe da9f 66be e734 88be
00000140: e35c 0f3e fe40 4b3e 6173 e33d 7b4f 203e
00000150: 811d f7bd fc6f b5be 8206 173d 75f4 7dbd
00000160: b4fb 4d3e 79f2 43be 688b d33d 9386 723e
00000170: 09b8 5cbe 8b67 ecbc e38d 44bd d623 893e
00000180: 07fe 783e b0d6 d33c f053 313e efbd f23d
00000190: 8b8d 51bd f141 f3bd 8949 dd3d b245 8bbd
000001a0: c474 213e f079 85bd 92fa 203e 83ae 343c
000001b0: f7b9 2e3e 9e13 243e 168e e13d 9138 503d
000001c0: a34a 02be acea bcba e390 1bbd e127 abbd
000001d0: 3398 423d 54a9 2a3e 95be c3bd b1bf 77be
000001e0: 0133 ad3e 7a5d f53d b628 c43d 17a6 bf3d
000001f0: b53c cb3d ca6c 06be 3b23 8c3e b0ca 8d3e

weight f4 [8]
1.0280336 1.0003914 0.948499 0.97608155 1.0520425 0.9876194 0.9825956 1.045154
00000000: 9b96 833f d30c 803f d5d0 723f 7be0 793f
00000010: 54a9 863f a0d4 7c3f 638b 7b3f 9bc7 853f

bias f4 [8]
0.0924784 0.005786878 0.0148579 -0.02013699 0.06325128 -0.034257043 -0.023038821 0.024639238
00000000: 5165 bd3d da9f bd3b 8d6e 733c 54f6 a4bc
00000010: e389 813d 1d51 0cbd e9bb bcbc 3ad8 c93c

running_mean f4 [8]
-0.4457128 0.3601961 0.07603131 0.04471483 -0.82640344 0.35710046 0.72006583 0.46081862
00000000: 7834 e4be a06b b83e 4eb6 9b3d e626 373d
00000010: 2d8f 53bf dfd5 b63e 3c56 383f 6bf0 eb3e

running_var f4 [8]
0.20413846 0.30229422 0.26467735 0.19044761 0.31365 0.32048365 0.14679421 0.14477341
00000000: ac09 513e 4fc6 9a3e ca83 873e b304 433e
00000010: bc96 a03e 6f16 a43e 3951 163e 7b3f 143e

weight f4 [8, 8, 4]
0.118557 0.02786381 0.028046016 0.22716014 0.092346735 -0.15595241 -0.08279996 0.08770315
0.12434793 0.078632355 -0.110029526 -0.1754037 0.025475465 0.076201156 0.00985335 -0.0121040065
0.009738916 -0.07490316 -0.17052071 0.37950212 -0.09581679 0.0447896 0.06678605 0.1110412
-0.12710014 -0.0034582417 -0.0793076 -0.06185196 -0.1959249 -0.08279371 -0.07445514 0.086365096
-0.006057222 0.07806184 -0.26303345 0.17170195 0.123258874 -0.16184257 -0.115575336 -0.0229058
-0.060515855 -0.014310879 0.0032213288 -0.07139531 0.022903135 -0.05973876 -0.045429036 -0.007961332
0.0013361971 0.0046435003 0.027260026 -0.16808462 -0.19101791 -0.20579967 0.13488807 -0.095412664
-0.1452166 -0.13121077 -0.1507221 0.11501624 -0.023626387 -0.14106084 -0.0986637 0.21570414
-0.09229297 0.23168024 0.15931235 -0.08124061 -0.094851345 0.11416994 0.13825698 0.080883
-0.07187627 0.07242763 -0.08135555 -0.10761519 0.039627466 0.110169485 0.10160557 -0.09209638
0.105898745 -0.042105906 0.18551315 -0.12735268 -0.0024128435 0.11757784 0.1869105 0.038707662
-0.11159645 0.014317791 0.028322434 -0.15466899 -0.08446595 -0.14518157 0.11867273 0.29661056
0.33859903 0.10261541 -0.030746456 0.33017063 0.005528315 -0.077992864 -0.059773043 -0.10932674
0.059313346 -0.064822964 0.046477105 -0.050158255 -0.043233443 0.08880709 0.1327066 0.31511605
-0.20131052 0.18126069 -0.28143492 0.17411733 0.020689217 -0.030075122 -0.20401536 -0.06812592
0.0066894465 -0.09952123 0.036809053 0.067285605 0.022237979 0.12946482 -0.0059756734 0.3625423
0.02767064 0.07806602 0.010456495 0.14516929 -0.07930163 -0.2120135 -0.016380863 0.015327686
0.087540515 -0.038592596 0.11911674 -0.091769844 0.12673664 0.08477252 -0.028650071 0.18594545
0.035058998 0.016654655 -0.01271339 0.040217258 -0.13258691 0.008099347 -0.20740148 0.055105496
-0.054924324 -0.12584066 -0.12375166 -0.21138327 -0.12870786 0.06807819 -0.06878795 0.006496115
-0.082523316 -0.13286516 0.106548585 0.11387029 0.086562835 0.18370028 0.024775362 -0.08682362
0.051564768 -0.04657109 -0.0564114 0.100793555 0.14824557 0.11615996 -0.1486414 -0.06652463
-0.19497448 -0.13485499 -0.10053804 0.13542087 -0.025457228 0.13089971 0.14248888 0.18218905
0.18196172 0.17635316 0.00052730425 0.07721359 -0.034975898 -0.040528372 -0.07775975 0.09985034
0.052626047 -0.0062747314 0.050728977 -0.13191773 0.20607892 0.08809975 -0.068623945 0.1999281
0.18443967 0.17007011 -0.030828418 -0.15831037 0.07600993 0.18897496 -0.024916284 -0.15836263
0.049188055 0.15336873 0.016739847 -0.07650313 -0.057070043 0.14054844 -0.07533557 0.104906574
0.045732714 0.15444085 0.026172113 0.16203445 -0.0639095 -0.084972925 0.09635748 -0.17888308
0.024403471 0.10946516 -0.10196743 0.0020062954 0.02778634 -0.085590795 -0.12235354 0.10855685
0.04335106 -0.029111534 -0.122427486 0.064775035 -0.08614059 0.13977304 0.08499843 -0.11653468
-0.14036764 -0.16657023 0.1484007 -0.20654853 0.08594789 0.19587016 0.12187308 -0.1355964
-0.06254666 0.031507365 -0.109700814 0.046452217 0.16894136 0.24529593 0.02949822 0.079444416
00000000: 03ce f23d a542 e43c c2c0 e53c ab9c 683e
00000010: 4920 bd3d fdb1 1fbe 0793 a9bd b69d b33d
00000020: 21aa fe3d 000a a13d 2957 e1bd 079d 33be
00000030: ecb1 d03c 5a0f 9c3d f26f 213c e24f 46bc
00000040: f98f 1f3c d466 99bd fb9c 2ebe 1a4e c23e
00000050: 983b c4bd 4d75 373d 20c7 883d 9269 e33d
00000060: 8a26 02be aba3 62bb 066c a2bd 7b58 7dbd
00000070: 89a0 48be c08f a9bd f07b 98bd 2fe0 b03d
00000080: a97b c6bb e3de 9f3d 52ac 86be a3d2 2f3e
00000090: 266f fc3d 0fba 25be c3b2 ecbd f2a4 bbbc
000000a0: 79df 77bd 2d78 6abc ee1c 533b b437 92bd
000000b0: 5b9f bb3c a1b0 74bd cc13 3abd 3f70 02bc
000000c0: 5623 af3a 8128 983b 6b50 df3c 601e 2cbe
000000d0: 339a 43be 26bd 52be 1920 0a3e b767 c3bd
000000e0: a9b3 14be 1e5c 06be e556 1abe a28d eb3d
000000f0: 208c c1bc 4172 10be 3210 cabd 8ce1 5c3e
00000100: 1904 bdbd 963d 6d3e c722 233e 7a61 a6bd
00000110: 6c41 c2bd eed1 e93d 3d93 0d3e fca5 a53d
00000120: de33 93bd f054 943d bd9d a6bd 5a65 dcbd
00000130: 6950 223d 8aa0 e13d 9516 d03d 079d bcbd
00000140: 71e1 d83d 3e77 2cbd 29f7 3d3e be68 02be
00000150: cc20 1ebb a7cc f03d 7765 3f3e ed8b 1e3d
00000160: ae8c e4bd 2b95 6a3c 7304 e83c 8c61 1ebe
00000170: 7cfc acbd 7aaa 14be b00a f33d 57dd 973e
00000180: da5c ad3e 0728 d23d fedf fbbc 200c a93e
00000190: de26 b53b b9ba 9fbd 94d4 74bd b3e6 dfbd
000001a0: 8df2 723d e7c1 84bd c75e 3e3d be72 4dbd
000001b0: 8d15 31bd 7ee0 b53d 3de4 073e e456 a13e
000001c0: 5824 4ebe 679c 393e 3d18 90be d04b 323e
000001d0: 6f7c a93c 1a60 f6bc 67e9 50be 9a85 8bbd
000001e0: 2533 db3b c9d1 cbbd 17c5 163d 09cd 893d
000001f0: 6c2c b63c 6d92 043e 95cf c3bb 259f b93e
00000200: 8aad e23c 14e1 9f3d b851 2b3c 42a7 143e
00000210: e568 a2bd 111a 59be 2931 86bc fa20 7b3c
00000220: 7148 b33d 4513 1ebd 7af3 f33d d4f1 bbbd
00000230: 40c7 013e 379d ad3d 8eb3 eabc 7c68 3e3e
00000240: 069a 0f3d 586f 883c d34b 50bc daba 243d
00000250: ddc4 07be 20b3 043c 0e61 54be 4db6 613d
00000260: 54f8 60bd 60dc 00be 8371 fdbd db74 58be
00000270: fecb 03be 946c 8b3d b2e0 8cbd 5ddd d43b
00000280: fc01 a9bd ce0d 08be 2536 da3d d434 e93d
00000290: db47 b13d ed1b 3c3e b3f5 ca3c 95d0 b1bd
000002a0: 9435 533d 54c1 3ebd a40f 67bd da6c ce3d
000002b0: b0cd 173e 46e5 ed3d 7335 18be 113e 88bd
000002c0: 64a7 47be 6d17 0abe e3e6 cdbd c5ab 0a3e
000002d0: ad8b d0bc 930a 063e 9be8 113e c48f 3a3e
000002e0: 2c54 3a3e ec95 343e ca3a 0a3a 2922 9e3d
000002f0: e342 0fbd 1401 26bd 8140 9fbd 567e cc3d
00000300: 698e 573d 439c cdbb 30c9 4f3d 7115 07be
00000310: 5a06 533e a46d b43d b68a 8cbd f4b9 4c3e
00000320: c1dd 3c3e dc26 2e3e e18b fcbc 1d1c 22be
00000330: 18ab 9b3d a782 413e 3c1d ccbc d029 22be
00000340: 6a79 493d b10c 1d3e 0122 893c acad 9cbd
00000350: 47c2 69bd eeeb 0f3e 8949 9abd 42d9 d63d
00000360: 3a52 3b3d be25 1e3e e666 d63c 5cec 253e
00000370: fce2 82bd 4906 aebd 1257 c53d 202d 37be
00000380: cae9 c73c 452f e03d 4dd4 d0bd 0d7c 033b
00000390: 2ea0 e33c 3a4a afbd 7e94 fabd 0e53 de3d
000003a0: e290 313d 507b eebc 43bb fabd c6a8 843d
000003b0: 7a6a b0bd aa20 0f3e a813 ae3d bca9 eebd
000003c0: 89bc 0fbe 6391 2abe 5af6 173e 7581 53be
000003d0: 7305 b03d 3092 483e 9898 f93d c8d9 0abe
000003e0: 7718 80bd de0d 013d d2aa e0bd ae44 3e3d
000003f0: f7fe 2c3e db2e 7b3e 40a6 f13c c1b3 a23d

weight f4 [8]
1.0134205 0.983261 1.0412695 1.0590569 0.99573463 0.948384 0.9594854 0.9650737
00000000: c3b7 813f feb6 7b3f 5248 853f 2d8f 873f
00000010: 77e8 7e3f 4bc9 723f d6a0 753f 120f 773f

bias f4 [8]
0.016293617 -0.06634031 0.021562533 0.022889758 0.0412679 -0.010981269 0.0177995 0.014378383
00000000: 317a 853c 6edd 87bd e9a3 b03c 4d83 bb3c
00000010: 8808 293d c8ea 33bc 42d0 913c 4f93 6b3c

running_mean f4 [8]
0.058799196 -0.4735695 0.34235168 0.44703054 -0.13929094 0.27373526 0.37316602 0.102645785
00000000: 6dd7 703d b477 f2be b848 af3e 30e1 e43e
00000010: 49a2 0ebe 0727 8c3e 9e0f bf3e f437 d23d

running_var f4 [8]
0.16182798 0.3150558 0.25831413 0.37995422 0.42289916 0.4721791 0.25939333 0.24825767
00000000: 3cb6 253e fe4e a13e c041 843e 5c89 c23e
00000010: 3d86 d83e 76c1 f13e 34cf 843e 4237 7e3e

weight f4 [8, 4, 1]
-0.5087622 0.26339638 0.13679421 -0.1710019 0.23663 0.6588705 0.2868824 -0.09300823
0.31184623 -0.3151996 -0.46208596 0.09562781 -0.12775971 0.5173248 0.11276552 -0.42343512
-0.28610367 0.37109587 -0.5132277 0.042522065 0.09213752 -0.31147367 -0.46994233 -0.50062484
-0.38818118 0.10832046 0.4498655 0.2541104 0.0088573145 0.6006877 -0.23468657 0.20049913
00000000: 3d3e 02bf e4db 863e c813 0c3e 1f1b 2fbe
00000010: 224f 723e bdab 283f 40e2 923e 197b bebd
00000020: 4faa 9f3e d861 a1be 8896 ecbe 83d8 c33d
00000030: 71d3 02be 666f 043f 9cf1 e63d 7dcc d8be
00000040: 2e7c 92be 4700 be3e e462 03bf 9e2b 2e3d
00000050: 99b2 bc3d 7a79 9fbe 489c f0be f328 00bf
00000060: afbf c6be 1ed7 dd3d c554 e63e c21a 823e
00000070: 451e 113c abc6 193f ad51 70be a54f 4d3e

weight f4 [8]
1.0175586 0.9107517 0.9395466 1.1359512 0.87647533 0.9454077 1.1580706 0.9826728
00000000: 5c3f 823f 0627 693f 2086 703f d966 913f
00000010: b060 603f 3d06 723f a83b 943f 7290 7b3f

bias f4 [8]
0.017699135 -0.12826614 0.05298892 0.030655444 0.073544875 -0.04052514 0.051181465 0.038393196
00000000: c7fd 903c 3358 03be e90a 593d 2021 fb3c
00000010: b29e 963d b0fd 25bd a8a3 513d 2f42 1d3d

running_mean f4 [8]
-0.2003837 0.61324024 -0.20017934 0.025584353 -0.31015134 -0.65330374 0.22142023 0.25403967
00000000: 6231 4dbe 50fd 1c3f d0fb 4cbe 4796 d13c
00000010: 28cc 9ebe ea3e 27bf fcbb 623e 7d11 823e

running_var f4 [8]
0.22402774 0.15552619 0.19306743 0.18856853 0.089943685 0.28039593 0.29228708 0.06918901
00000000: 8767 653e 4242 1f3e 78b3 453e 1c18 413e
00000010: 6534 b83d 0e90 8f3e a7a6 953e f8b2 8d3d

weight f4 [4, 8]
0.05846502 -0.13925216 -0.20598097 -0.07375595 0.19477652 0.21024163 -0.25031272 -0.28399733
0.1724607 -0.056359563 -0.013871298 0.09534676 -0.12626489 -0.32099703 -0.11702427 -0.19715646
-0.25553283 -0.16274148 -0.20890674 0.03276937 0.20087199 -0.04842023 0.2987262 0.23588198
-0.25532255 0.05694616 -0.17904952 -0.06623244 0.26148465 0.29083225 0.0044148825 -0.21945
00000000: 0479 6f3d 1e98 0ebe adec 52be 5c0d 97bd
00000010: 7f73 473e 9549 573e fd28 80be 1968 91be
00000020: 8a99 303e 49d9 66bd 7144 63bc 2945 c33d
00000030: 954b 01be b959 a4be 6caa efbd 62e3 49be
00000040: 33d5 82be b4a5 26be a6eb 55be 2d39 063d
00000050: 63b1 4d3e 4b54 46bd a4f2 983e 0c8b 713e
00000060: a3b9 82be 6040 693d c258 37be e0a4 87bd
00000070: 51e1 853e f7e7 943e b8aa 903b 80b7 60be

weight f4 [8, 4]
-0.081259996 -0.23163146 0.3564218 0.42067185 -0.2838475 0.0071603847 0.12674958 0.34182116
0.1767088 -0.08796128 -0.46979183 -0.30226395 -0.15402564 -0.17509763 -0.15957458 0.23649606
0.026188517 -0.11172686 0.11257442 0.004736817 0.2787878 0.3491877 0.05811977 0.33038208
-0.29057598 0.03364574 -0.26196557 0.003680618 -0.3331087 0.13186358 0.4284629 -0.036468007
00000000: a46b a6bd cc30 6dbe eb7c b63e 4d62 d73e
00000010: 7654 91be a9a1 ea3b a4ca 013e 2f03 af3e
00000020: 27f3 343e 0b25 b4bd 8e88 f0be 57c2 9abe
00000030: e6b8 1dbe cb4c 33be 8567 23be 062c 723e
00000040: 4d89 d63c 0dd1 e4bd 6b8d e63d 4d37 9b3b
00000050: 46bd 8e3e bbc8 b23e ff0e 6e3d d727 a93e
00000060: 60c6 94be 1ed0 093d 5a20 86be 8636 713b
00000070: 398d aabe 3f07 073e 7d5f db3e 7a5f 15bd

weight f4 [8, 8, 4]
-0.13950661 -0.10967885 0.14900632 0.032842882 -0.21050066 -0.016102135 0.113263406 -0.1322147
0.005895326 0.09211895 -0.12840745 -0.09064714 -0.14040464 -0.11633954 -0.0677875 -0.14791729
-0.07729805 0.04000304 0.06519484 -0.10288058 -0.046234425 -0.18730737 0.0640753 0.15593769
0.028991172 0.16102576 -0.079198994 -0.12044629 -0.0028794347 0.0851134 -0.106895305 -0.17781295
-0.028198903 0.13313887 0.13714674 -0.083142065 -0.19129364 -0.12158073 0.0836265 -0.060110234
0.14507522 -0.21315072 0.079339564 0.18837692 -0.22706482 0.17371084 0.12659226 -0.12790626
-0.15230775 -0.18274507 0.056751724 0.1208331 0.023032948 -0.04185026 -0.028470628 -0.20992479
-0.2745389 -0.11007002 -0.02687122 -0.07060379 -0.051887374 -0.07108015 -0.12533675 0.1987173
-0.16381611 -0.10264576 -0.016885165 -0.12048742 -0.05163023 0.09657834 -0.033189353 -0.057351656
-0.009351774 -0.07859467 -0.14630316 0.0064774617 -0.1954665 0.0034935097 -0.090525836 -0.09857545
-0.13635464 -0.04828966 0.020292843 -0.1974958 -0.22540998 0.004073914 0.038999896 0.074905165
-0.09888734 -0.14732996 -0.14024372 0.08614557 0.017665947 -0.07314848 -0.11244879 -0.12547125
0.13955516 -0.07641936 -0.012186979 0.011779935 0.16990846 -0.14649719 0.05226543 -0.16019568
-0.026641114 -0.13271594 -0.015298576 -0.14195353 0.15411825 -0.11257372 0.16080387 -0.12075341
-0.032653447 -0.12720662 0.1732357 0.099143565 -0.11985876 -0.189239 -0.101986155 -0.023673551
0.15299346 0.13882828 -0.098613754 -0.13021089 0.109733306 -0.02182233 0.028136484 0.041894156
0.24685273 -0.21506143 0.1550934 0.038145848 -0.045391098 0.10485262 0.17296411 -0.079801746
-0.16469118 0.14597158 -0.047372818 0.21875957 0.12244715 -0.034463562 0.15131092 0.19950122
0.20767836 0.061089788 0.20450704 -0.122865185 -0.018161165 -0.016894212 -0.17250045 -0.030209491
0.039703123 -0.17246817 0.006923633 -0.18574245 0.0086797625 -0.06437566 0.028581174 -0.20494576
-0.13630885 0.096539296 -0.021796469 -0.119516104 0.03783515 -0.081505224 -0.09154502 -0.19463858
0.07295702 0.030355217 0.16729023 0.13965811 0.06197774 -0.08717468 -0.119631544 -0.22562295
0.16901061 0.039244577 -0.12873507 -0.069025375 -0.026168993 0.1899266 -0.027914597 -0.013639349
0.018966028 0.05216322 0.09627108 0.094589554 0.024554422 0.093719915 0.14412273 -0.0055210637
0.0630431 0.08757319 -0.12556872 0.12851204 -0.011528952 0.012131229 -0.052815992 0.1526736
-0.016463436 0.00406527 0.10787698 0.072981395 0.17798764 0.15740326 0.05918996 0.34216505
-0.2003888 0.08785917 -0.03645853 0.010746887 -0.0708038 0.0285166 -0.0709875 -0.12993868
-0.19356304 -0.16068354 -0.024040783 -0.116342984 0.076809675 0.04923942 0.17908451 -0.26061696
-0.096807264 -0.074776925 -0.07473564 0.014985253 0.10413687 -0.099579506 -0.22987257 -0.036164947
-0.09793051 0.1515762 0.1431775 0.0068443203 0.18475488 0.021211803 -0.0045388723 0.1909997
-0.06781424 0.18570393 -0.09858573 -0.14562531 -0.05587101 -0.016663859 0.023368586 -0.16256446
-0.18926325 -0.16350561 -0.08580146 0.14395253 0.06990158 -0.07730455 -0.2476717 0.07752003
00000000: d2da 0ebe 4e9f e0bd 1d95 183e 4286 063d
00000010: 7c8d 57be a0e8 83bc a5f6 e73d 4a63 07be
00000020: 942d c13b dca8 bc3d 3e7d 03be 35a5 b9bd
00000030: 3cc6 0fbe 6d43 eebd 2cd4 8abd a177 17be
00000040: 714e 9ebd 3ada 233d df84 853d 0eb3 d2bd
00000050: 4f60 3dbd 81cd 3fbe e939 833d 21ae 1f3e
00000060: e57e ed3c f0e3 243e 1533 a2bd 8bac f6bd
00000070: e6b4 3cbb ef4f ae3d edeb dabd 9914 36be
00000080: 6301 e7bc 8e55 083e 3270 0c3e 6346 aabd
00000090: 7be2 43be 51ff f8bd 5f44 ab3d 2636 76bd
000000a0: 998e 143e 2f44 5abe c87c a23d e1e5 403e
000000b0: ae83 68be 41e1 313e 67a1 013e dcf9 02be
000000c0: 90f6 1bbe 8621 3bbe 7f74 683d 5877 f73d
000000d0: 98af bc3c 2e6b 2bbd 3c3b e9bc 86f6 56be
000000e0: 5d90 8cbe 646c e1bd 0821 dcbc b898 90bd
000000f0: db87 54bd 7892 91bd 4758 00be 8c7c 4b3e
00000100: 69bf 27be f137 d2bd c252 8abc 1cc2 f6bd
00000110: 387a 53bd ddca c53d 8ff1 07bd 92e9 6abd
00000120: 2f38 19bc 3ef6 a0bd 7fd0 15be e340 d43b
00000130: 5f28 48be 5ef3 643b 9c65 b9bd ede1 c9bd
00000140: 8da0 0bbe 61cb 45bd 2d3d a63c 573c 4abe
00000150: e0d1 66be 787e 853b 5bbe 1f3d e167 993d
00000160: 7285 cabd aadd 16be 0d9c 0fbe 176d b03d
00000170: 2db8 903c dfce 95bd 8d4b e6bd 897b 00be
00000180: 8ce7 0e3e c181 9cbd e5ab 47bc a100 413c
00000190: 7cfc 2d3e 5c03 16be 4714 563d 560a 24be
000001a0: 773e dabc b0e6 07be e1a6 7abc 445c 11be
000001b0: 2dd1 1d3e 0d8d e6bd c5a9 243e 904d f7bd
000001c0: 9fbf 05bd 7442 02be b364 313e c80b cb3d
000001d0: 8278 f5bd dec7 41be 1ede d0bd 09ef c1bc
000001e0: 51aa 1c3e 0029 0e3e 02f6 c9bd 0156 05be
000001f0: dbbb e03d bec4 b2bc 7c7e e63c 3599 2b3d
00000200: f6c6 7c3e 1039 5cbe ced0 1e3e d23e 1c3d
00000210: 04ec 39bd f8bc d63d 811d 313e 196f a3bd
00000220: cea4 28be 9379 153e 000a 42bd 8202 603e
00000230: 92c5 fa3d aa29 0dbd 40f1 1a3e 0c4a 4c3e
00000240: a3a9 543e 4939 7a3d 4b6a 513e bea0 fbbd
00000250: b9c6 94bc bb65 8abc f5a3 30be e579 f7bc
00000260: be9f 223d 7f9b 30be a5df e23b 4533 3ebe
00000270: 9035 0e3c 63d7 83bd 1123 ea3c 4ddd 51be
00000280: 8c94 0bbe 65b6 c53d 828e b2bc dcc4 f4bd
00000290: 08f9 1a3d 36ec a6bd f57b bbbd 564f 47be
000002a0: 7d6a 953d 81ab f83c 214e 2b3e 8902 0f3e
000002b0: 5fdc 7d3d a388 b2bd 6201 f5bd b409 67be
000002c0: 1e11 2d3e ecbe 203d 20d3 03be 2d5d 8dbd
000002d0: 5b60 d6bc 1e7c 423e 27ad e4bc 9377 5fbc
000002e0: a55e 9b3c 1aa9 553d c629 c53d 2bb8 c13d
000002f0: 5b26 c93c 3af0 bf3d e994 133e 0aea b4bb
00000300: be1c 813d 9359 b33d 1695 00be a998 033e
00000310: eee3 3cbc 10c2 463c 9555 58bd 7856 1c3e
00000320: 54de 86bc f535 853b 9bee dc3d 4577 953d
00000330: 6442 363e 522e 213e 2c71 723d 4230 af3e
00000340: b932 4dbe 82ef b33d 8a55 15bd b613 303c
00000350: 9501 91bd a59b e93c e561 91bd a50e 05be
00000360: 6435 46be 3a8a 24be 2df1 c4bc 3b45 eebd
00000370: 644e 9d3d 46af 493d ee61 373e 966f 85be
00000380: e342 c6bd a524 99bd 000f 99bd b584 753c
00000390: b645 d53d 57f0 cbbd b763 6bbe b221 14bd
000003a0: cb8f c8bd cb36 1b3e 1f9d 123e 5246 e03b
000003b0: 6230 3d3e 60c4 ad3c d2ba 94bb 6d95 433e
000003c0: 31e2 8abd 2c29 3e3e 51e7 c9bd cd1e 15be
000003d0: 00d9 64bd a582 88bc 7a6f bf3c 4c77 26be
000003e0: 3ace 41be 046e 27be adb8 afbd 4b68 133e
000003f0: 8f28 8f3d d951 9ebd a69d 7dbe d2c2 9e3d

weight f4 [8]
0.97943974 1.0036623 0.96198064 0.9547282 1.0571698 0.9518555 1.0834113 1.0069442
00000000: 90bc 7a3f 0278 803f 5d44 763f 1169 743f
00000010: 5751 873f cdac 733f 39ad 8a3f 8ce3 803f

bias f4 [8]
-0.01989495 0.0057767294 -0.056581344 -0.0010371218 -0.0015135936 -0.034659777 0.04048036 0.027164416
00000000: bcfa a2bc b84a bd3b d7c1 67bd 08f0 87ba
00000010: c663 c6ba 69f7 0dbd bcce 253d e987 de3c

running_mean f4 [8]
-0.5178698 -0.39339873 -0.9483821 -0.12625986 0.26213846 0.0893534 0.15544248 -0.25550312
00000000: 1d93 04bf 8f6b c9be 2bc9 72bf 444a 01be
00000010: 0337 863e eafe b63d 502c 1f3e 4ed1 82be

running_var f4 [8]
0.32735616 0.2204681 0.2816591 0.30764446 0.53904366 0.32309386 0.35780093 0.3348923
00000000: 3a9b a73e 64c2 613e 9f35 903e 9383 9d3e
00000010: c4fe 093f 8f6c a53e af31 b73e 0177 ab3e

weight f4 [8, 8, 4]
-0.091483876 -0.091543995 -0.07289281 0.04326862 0.16532382 -0.005757948 0.11541629 -0.15878756
-0.14243145 -0.16725479 -0.07925018 0.16645628 -0.07257084 -0.08225923 0.00017563379 -0.06663578
-0.0047367536 0.21208875 -0.13754433 -0.018092228 -0.11298946 -0.08047875 -0.009938343 0.15757772
0.20653619 0.025849637 0.055445056 -0.109089784 0.13421549 0.0322042 0.16371845 0.23833518
-0.14755714 0.11994958 -0.03500037 0.0632105 -0.030791337 0.0915105 -0.019731486 0.13335969
0.03738093 -0.13301404 -0.19167723 -0.029250834 0.16471912 -0.03973678 0.054320656 -0.14881192
0.20389958 0.08641663 0.26428014 -0.011969471 -0.15903734 -0.15202372 -0.11214303 -0.07577835
-0.052174974 0.18978763 0.15918803 -0.14396073 -0.073130265 0.16793703 0.07921999 0.16710502
0.015010978 -0.008614433 0.042520534 0.060405236 0.048118725 0.05170683 0.01745762 0.23873842
0.038707744 -0.031104574 0.08411684 0.13791177 0.12703934 -0.05012512 -0.003840026 -0.14526775
0.16220866 0.01327918 -0.059409972 -0.10648851 0.1539739 -0.021156847 0.06457095 -0.11112902
-0.11217594 0.23927754 0.07551714 -0.2659036 0.03575923 0.21015148 0.12856881 0.0459503
-0.07219299 0.05594706 0.025235854 -0.18112423 -0.13623753 0.00043792994 0.17915373 -0.015016329
0.151082 -0.10541616 0.031939168 0.01699983 -0.032310404 0.040088747 -0.031909313 0.16579655
0.04145304 0.13528061 -0.035810303 0.22972304 -0.08337473 -0.13487725 -0.13777968 0.0791414
0.30243444 -0.021609696 0.17193305 0.08947758 0.20514263 -0.022508638 -0.08586844 -0.09673038
-0.09070749 -0.13997321 -0.099141575 0.14271416 0.06790343 0.21565993 0.15469038 -0.19612826
0.14572164 -0.093726136 0.035175752 0.11493967 -0.09301141 0.05624091 -0.06208091 -0.031686705
-0.087643035 0.013248967 0.09313202 0.19378598 -0.021266567 -0.18424405 -0.02918141 0.042247485
-0.006012022 0.07558871 0.10070193 0.07349241 0.22230358 -0.14663558 -0.023388026 0.063401446
0.14933603 0.17167096 -0.087338574 -0.14695522 0.26484403 -0.061293315 -0.018905211 -0.07402827
0.08969847 0.036534995 0.155713 -0.17264476 0.01689216 0.095364265 0.20374298 -0.24977496
0.061787914 0.1351181 0.0062697176 -0.0941834 -0.144508 -0.12744595 -0.05412516 0.18772852
-0.086746365 0.041380726 -0.030259993 -0.002048054 0.12952273 0.025701057 0.23383865 0.051334262
0.05177492 0.0491162 -0.15616758 -0.020035224 -0.03931133 0.12550327 -0.0037741894 -0.056205243
0.096679345 -0.15850072 -0.10498463 0.13518876 0.075097635 0.10886515 0.048281856 0.100393765
-0.08099022 0.13296163 0.14601134 0.24554992 -0.032834094 -0.004764634 0.0523044 0.02839462
0.17598455 -0.16700314 0.25907844 -0.011943469 0.22426337 0.019362923 -0.11610983 -0.06511106
0.14655522 0.02913876 0.13221192 0.115213536 -0.013619089 -0.2080911 -0.10436929 0.008226398
0.19343573 -0.13677272 -0.13248165 -0.12627953 0.0189311 -0.042649355 0.041466277 -0.037606493
-0.08693066 0.09765805 -0.12794961 -0.1218758 -0.11419164 0.07934314 0.08211061 0.011321606
0.20517643 0.003581703 -0.13119252 -0.23961224 -0.08853126 0.005620785 -0.09582388 0.19582461
00000000: e65b bbbd 6b7b bbbd d348 95bd 703a 313d
00000010: a64a 293e 2bad bcbb 605f ec3d 3599 22be
00000020: 8dd9 11be d744 2bbe eb4d a2bd 8473 2a3e
00000030: 05a0 94bd 8777 a8bd 562a 3839 5778 88bd
00000040: c536 9bbb cb2d 593e 6cd8 0cbe 2736 94bc
00000050: 0567 e7bd 0bd2 a4bd 6fd4 22bc 0e5c 213e
00000060: 397e 533e 9ec2 d33c 5b1a 633d 776a dfbd
00000070: c96f 093e 8de8 033d cfa5 273e 230e 743e
00000080: 3819 17be 20a8 f53d 8c5c 0fbd 8274 813d
00000090: 1d3e fcbc db69 bb3d eda3 a1bc 718f 083e
000000a0: bf1c 193d d534 08be 0947 44be 729f efbc
000000b0: 21ac 283e 09c3 22bd 567f 5e3d 2762 18be
000000c0: 0dcb 503e 34fb b03d ba4f 873e 9a1b 44bc
000000d0: afda 22be 1bac 1bbe 3fab e5bd ae31 9bbd
000000e0: 6db5 55bd b057 423e 3002 233e 716a 13be
000000f0: 52c5 95bd aff7 2b3e 173e a23d 941d 2b3e
00000100: 9bf0 753c 8d23 0dbc 032a 2e3d 7b6b 773d
00000110: 2418 453d 8aca 533d 4803 8f3c d877 743e
00000120: 038c 1e3d 05cf febc 7345 ac3d be38 0d3e
00000130: 9a16 023e ff4f 4dbd f2a8 7bbb 12c1 14be
00000140: 071a 263e eb90 593c df57 73bd a616 dabd
00000150: 56ab 1d3e 2051 adbc c63d 843d 9d97 e3bd
00000160: 80bc e5bd 2c05 753e bba8 9a3d 8424 88be
00000170: 4578 123d f331 573e 8ba7 033e 6236 3c3d
00000180: ebd9 93bd bf28 653d 6cbb ce3c a178 39be
00000190: da81 0bbe f699 e539 1374 373e 0c07 76bc
000001a0: 3db5 1a3e 6de4 d7bd a5d2 023d 3a43 8b3c
000001b0: ea57 04bd 1934 243d 57b3 02bd 92c6 293e
000001c0: aaca 293d 0087 0a3e d3ad 12bd 843c 6b3e
000001d0: 5fc0 aabd 431d 0abe 1e16 0dbe e314 a23d
000001e0: b0d8 9a3e d106 b1bc 380f 303e 0540 b73d
000001f0: e910 523e 0964 b8bc cbdb afbd 941a c6bd
00000200: d9c4 b9bd 2355 0fbe bd0a cbbd a923 123e
00000210: f410 8b3d f5d5 5c3e 2867 1e3e d9d5 48be
00000220: 0e38 153e 7df3 bfbd 7314 103d 7d65 eb3d
00000230: c47c bebd de5c 663d 8d48 7ebd ebc9 01bd
00000240: 317e b3bd 3212 593c 00bc be3d d56f 463e
00000250: 3937 aebc 79aa 3cbe da0d efbc b30b 2d3d
00000260: 7f00 c5bb 41ce 9a3d d03c ce3d 3083 963d
00000270: 8da3 633e a327 16be 3f98 bfbc 9ed8 813d
00000280: 8beb 183e 83ca 2f3e 91de b2bd 6e7b 16be
00000290: a399 873e b30e 7bbd 1adf 9abc 229c 97bd
000002a0: d5b3 b73d b8a5 153d 3b73 1f3e cac9 30be
000002b0: 6d61 8a3c 574e c33d 00a2 503e 02c5 7fbe
000002c0: 5315 7d3d 665c 0a3e 3472 cd3b 3ae3 c0bd
000002d0: e8f9 13be 3181 02be 58b2 5dbd e83b 403e
000002e0: 14a8 b1bd d67e 293d cee3 f7bc a538 06bb
000002f0: 9ba1 043e 068b d23c 6673 6f3e e043 523d
00000300: f011 543d 122e 493d 65ea 1fbe e920 a4bc
00000310: eb04 21bd ee83 003e 6458 77bb 7837 66bd
00000320: d2ff c53d 034e 22be 2f02 d7bd ec6e 0a3e
00000330: cacc 993d b1f4 de3d 32c3 453d 3f9b cd3d
00000340: 33de a5bd 1827 083e ff83 153e 7071 7b3e
00000350: 0b7d 06bd a620 9cbb 233d 563d d69b e83c
00000360: 4b35 343e df02 2bbe eea5 843e 8aae 43bc
00000370: 4ca5 653e fe9e 9e3c feca edbd f358 85bd
00000380: 9212 163e 69b4 ee3c 9062 073e 13f5 eb3d
00000390: 9922 5fbc d515 55be 91bf d5bd 04c8 063c
000003a0: 0414 463e 260e 0cbe 45a9 07be 6c4f 01be
000003b0: 6515 9b3c 17b1 2ebd 8bd8 293d 4409 1abd
000003c0: b408 b2bd f200 c83d 3905 03be 059a f9bd
000003d0: 4edd e9bd a87e a23d 9c29 a83d 427e 393c
000003e0: c519 523e 01bb 6a3b 5557 06be e95c 75be
000003f0: e14f b5bd 902e b83b 4f3f c4bd 3f86 483e

weight f4 [8]
0.93962914 1.1419733 1.0183667 1.0364789 1.0265824 0.9476942 1.0113233 1.0092684
00000000: 898b 703f 2e2c 923f d759 823f 57ab 843f
00000010: 0d67 833f 169c 723f 0b73 813f b52f 813f

bias f4 [8]
0.012803449 0.09488725 0.07823467 0.02821331 -0.047944214 -0.0004379287 0.077861816 -0.044641253
00000000: 8fc5 513c 3f54 c23d 8039 a03d 991f e73c
00000010: 2761 44bd cc99 e5b9 0476 9f3d bfd9 36bd

running_mean f4 [8]
0.122781694 0.21173477 0.39596227 0.31385642 0.2077448 0.26775265 0.41809693 -0.17142352
00000000: f874 fb3d 00d1 583e 91bb ca3e cab1 a03e
00000010: 0ebb 543e e016 893e cd10 d63e a689 2fbe

running_var f4 [8]
0.23795469 0.5737225 0.23100111 0.6341768 0.26055413 0.17133631 0.39918524 0.16800225
00000000: 65aa 733e 7adf 123f 8e8b 6c3e 6959 223f
00000010: 5a67 853e c972 2f3e 0262 cc3e c808 2c3e

weight f4 [4, 8]
0.14434953 0.2840622 0.30827734 0.18002585 -0.1665647 0.060109943 0.2704914 -0.26540777
0.34478095 0.02896975 0.1750096 -0.28808567 0.29793876 0.04635349 0.2343569 -0.12165367
-0.043993294 0.2766234 0.11111227 -0.102024294 0.26106066 -0.28475446 0.15135635 0.013972851
0.034591634 -0.34008834 -0.07187288 -0.30005044 0.14556795 0.052141696 -0.062007397 -0.12069081
00000000: 5dd0 133e 9a70 913e 87d6 9d3e b258 383e
00000010: f08f 2abe d835 763d d97d 8a3e 87e3 87be
00000020: 2187 b03e f851 ed3c b735 333e f77f 93be
00000030: 6e8b 983e 28dd 3d3d 41fb 6f3e 8f25 f9bd
00000040: 5032 34bd 95a1 8d3e d48e e33d 1df2 d0bd
00000050: bea9 853e 56cb 91be 29fd 1a3e 63ee 643c
00000060: f5af 0d3d 0f20 aebe 1732 93bd 36a0 99be
00000070: c40f 153e 8892 553d 78fb 7dbd be2c f7bd

weight f4 [8, 4]
0.3366428 0.22314416 0.031184275 0.12699793 -0.53385866 -0.5061145 -0.46578905 0.22253437
0.48761198 -0.17116012 0.2828232 -0.027793 -0.29485425 0.3746291 -0.26814482 -0.31723547
-0.3702971 -0.12566718 0.43682188 0.24024372 -0.094782144 0.14550085 0.014813594 0.18227087
0.4108432 -0.28252405 0.24937187 0.26100713 -0.29086074 0.037014842 0.38046888 -0.3414222
00000000: 725c ac3e e77f 643e 2a76 ff3c bf0b 023e
00000010: f6aa 08bf b890 01bf e77b eebe 0de0 633e
00000020: 47a8 f93e 9944 2fbe 34ce 903e 25ae e3bc
00000030: 23f7 96be 63cf bf3e 474a 89be b06c a2be
00000040: 9597 bdbe e6ae 00be 1ea7 df3e 7302 763e
00000050: 241d c2bd 2dfe 143e b7b4 723c 37a5 3a3e
00000060: 0a5a d23e fea6 90be 575b 7f3e baa2 853e
00000070: b3eb 94be e09c 173d d1cc c23e e4ce aebe

weight f4 [32, 8, 2]
0.21337402 -0.15505692 0.2528654 -0.12004141 -0.11137018 -0.24436723 0.2260967 0.21782006
0.10624867 -0.028356263 0.0750624 -0.19963574 0.11689839 -0.11440557 0.16005722 0.22074081
-0.13348575 0.22311752 0.29921108 -0.102112375 -0.17302069 -0.11691713 0.23031814 0.2544225
0.04150201 -0.164179 0.118008815 0.06766696 -0.1805158 -0.051454395 -0.11795426 0.059341546
-0.053620525 -0.02892234 0.16153944 -0.07557205 -0.17924733 0.2091775 0.102641605 -0.15792881
0.26207104 0.042807 -0.20447919 0.035482515 0.24205773 -0.26983315 0.07038278 0.03766336
-0.010789831 -0.01238177 -0.024950292 -0.18706298 -0.08789119 0.17766678 0.026865354 -0.11767881
-0.022303453 -0.010524589 -0.21909504 -0.18049756 -0.0018757071 -0.060665008 -0.19550799 0.15864941
0.009724238 0.20280848 -0.05027611 0.058742415 -0.049220838 0.19518599 -0.19334221 0.0024438512
-0.16464235 0.15420325 0.047072332 0.051912863 -0.062796295 -0.20383053 -0.045616932 -0.063035786
0.15662777 0.17409693 -0.010691927 -0.22384064 -0.17247182 -0.26128188 -0.057804365 0.040682442
0.08496352 -0.15806112 -0.027739959 -0.111568555 -0.16649103 -0.014148141 -0.07378308 0.0938961
-0.23554029 0.17447884 -0.19199304 0.20748955 -0.15001589 -0.115805626 0.12924512 -0.20958668
0.102680475 -0.027092418 0.22715418 0.19799817 0.19105919 0.16014849 0.10056754 0.09431733
0.04100134 -0.18826704 0.2298011 -0.17595473 -0.034584858 0.17303957 -0.06843103 0.18666595
-0.16787304 -0.15815206 0.1502657 0.10471338 -0.13322632 0.07203109 -0.06054864 0.0006734357
-0.038161196 -0.06685918 -0.18977581 0.26328883 0.054470107 -0.20504794 0.22305688 0.027541857
-0.038282976 0.058007125 0.023479994 0.085859835 -0.11876098 -0.0011753337 -0.022260606 0.11903061
-0.09683621 -0.14779015 0.22054082 0.16229522 -0.25066343 0.21962437 -0.17351483 0.24392223
-0.09038437 0.21199407 -0.073907845 0.023116348 0.063619934 -0.205398 0.23687173 -0.07036932
0.055461675 -0.20331982 0.13316101 0.1344094 0.08541624 -0.26606867 0.097533144 -0.11725557
-0.20499064 -0.18794255 -0.08627222 -0.1606148 -0.0356558 -0.048379857 0.047178634 -0.053538516
-0.019072302 0.17823988 -0.20406125 0.07213964 0.11052661 0.15280506 0.121614486 -0.115802474
-0.0044427514 0.23930298 0.16001779 0.023308521 -0.18580504 -0.13936542 -0.200258 -0.18606393
0.21330163 0.057070162 0.12503882 -0.16132702 -0.23379482 0.06100427 0.19863121 -0.23114546
0.21756406 0.15407339 -0.16194174 0.010145493 -0.08473688 0.0060794805 -0.07692118 0.12088085
0.03887037 -0.08184367 -0.23059684 0.01156851 0.22326487 -0.11844871 -0.23259768 0.03411115
0.18008083 -0.16800794 0.12164735 0.10115574 0.15010314 -0.19570953 -0.046210077 0.10606878
0.24368168 0.011576058 0.0009904177 0.09508747 -0.23990309 0.21969742 0.20411597 0.049114466
-0.013894199 0.21940702 -0.015639832 0.053864937 0.14991549 0.12549672 0.1536955 -0.0007604031
0.07509257 0.047978573 0.031722836 0.2522705 -0.17558786 0.11719621 -0.0075162323 -0.16968998
0.048710376 -0.015851583 -0.22831888 -0.050678663 -0.0013344475 0.17994845 -0.026267745 0.049378224
00000000: b87e 5a3e 3ec7 1ebe 9377 813e 45d8 f5bd
00000010: 0d16 e4bd 673b 7abe e585 673e 390c 5f3e
00000020: e798 d93d 654b e8bc 51ba 993d 506d 4cbe
00000030: 6c68 ef3d 784d eabd 0ae6 233e e109 623e
00000040: 7db0 08be eb78 643e 3232 993e 4b20 d1bd
00000050: 562c 31be 4072 efbd 85d8 6b3e aa43 823e
00000060: 03fe 293d 8a1e 28be 9bae f13d fa94 8a3d
00000070: 22d9 38be d8c1 52bd 0192 f1bd 1f10 733d
00000080: 32a1 5bbd 8bee ecbc 986a 253e 85c5 9abd
00000090: 9d8c 37be a032 563e c335 d23d 17b8 21be
000000a0: 2d2e 863e 6556 2f3d fe62 51be 1d56 113d
000000b0: fbdd 773e 9227 8abe d924 903d e544 1a3d
000000c0: d5c7 30bc e8dc 4abc 8e64 ccbc 708d 3fbe
000000d0: 4c00 b4bd 48ee 353e bb14 dc3c 9701 f1bd
000000e0: bbb5 b6bc 536f 2cbc 735a 60be 5ad4 38be
000000f0: 49da f5ba df7b 78bd 3f33 48be fe74 223e
00000100: 6952 1f3c 07ad 4f3e 53ee 4dbd e39b 703d
00000110: ca9b 49bd d6de 473e 80fb 45be 0529 203b
00000120: 0198 28be 75e7 1d3e ebce 403d 95a2 543d
00000130: 589b 80bd f3b8 50be d2d8 3abd e818 81bd
00000140: 0863 203e 7746 323e 312d 2fbc 7b36 65be
00000150: 749c 30be bdc6 85be 45c4 6cbd a2a2 263d
00000160: 5b01 ae3d c6da 21be e93e e3bc 0e7e e4bd
00000170: a07c 2abe 9bcd 67bc 951b 97bd 994c c03d
00000180: 7931 71be 95aa 323e d399 44be 2478 543e
00000190: c49d 19be 802b edbd d558 043e e49d 56be
000001a0: 244a d23d ebf0 ddbc 1b9b 683e 08c0 4a3e
000001b0: 05a5 433e f7fd 233e 5bf6 cd3d 7229 c13d
000001c0: 05f1 273d 13c9 40be fb50 6b3e 7a2d 34be
000001d0: daa8 0dbd 4931 313e 9125 8cbd 5c25 3f3e
000001e0: e9e6 2bbe 9df2 21be 40df 193e f873 d63d
000001f0: 7b6c 08be 0985 933d da01 78bd 8189 303a
00000200: ea4e 1cbd 77ed 88bd 9754 42be cbcd 863e
00000210: 0c1c 5f3d 16f8 51be 0669 643e 769f e13c
00000220: 9cce 1cbd e198 6d3d 1e59 c03c 48d7 af3d
00000230: f538 f3bd a80d 9aba e05b b6bc 52c6 f33d
00000240: 1052 c6bd 4d56 17be 74d5 613e b830 263e
00000250: f556 80be 36e5 603e dfad 31be c0c6 793e
00000260: 711b b9bd f914 593e ff5c 97bd 7f5e bd3c
00000270: 2b4b 823d da53 52be 818e 723e ca1d 90bd
00000280: c82b 633d 1233 50be 5c5b 083e 9ea2 093e
00000290: b6ee ae3d 273a 88be 75bf c73d b023 f0bd
000002a0: 11e9 51be 0374 40be 7daf b0bd 3578 24be
000002b0: d10b 12bd f529 46bd 623e 413d 344b 5bbd
000002c0: 843d 9cbc 8484 363e 6ff5 50be f3bd 933d
000002d0: c65b e23d ee78 1c3e 0411 f93d d929 edbd
000002e0: 8094 91bb d70b 753e b4db 233e 83f1 be3c
000002f0: ad43 3ebe cfb5 0ebe 6f10 4dbe 8b87 3ebe
00000300: be6b 5a3e 67c2 693d 2d0a 003e e932 25be
00000310: e967 6fbe 9ddf 793d fb65 4b3e 65b1 6cbe
00000320: 1dc9 5e3e 6ac5 1d3e 0ed4 25be 4839 263c
00000330: 888a adbd 6136 c73b da88 9dbd 6190 f73d
00000340: 8936 1f3d a79d a7bd 9421 6cbe d989 3d3c
00000350: 8c9f 643e 3d95 f2bd 162e 6ebe 22b8 0b3d
00000360: 1c67 383e 460a 2cbe 3f22 f93d be2a cf3d
00000370: a3b4 193e 1468 48be c746 3dbd 973a d93d
00000380: b187 793e 82a9 3d3c e7d0 813a 38bd c23d
00000390: 28a9 75be 5cf8 603e c703 513e 402c 493d
000003a0: 7fa4 63bc 3cac 603e 1b1f 80bc 7ba1 5c3d
000003b0: 7283 193e 3682 003e 5a62 1d3e ca55 47ba
000003c0: 22ca 993d 2e85 443d ceef 013d 9929 813e
000003d0: 4ecd 33be 9104 f03d ba4a f6bb 36c3 2dbe
000003e0: 8884 473d 2edb 81bc 6dcc 69be 6e94 4fbd
000003f0: a1e8 aeba 6844 383e 742f d7bc d240 4a3d

weight f4 [32]
0.984914 1.0247512 1.003903 0.99474037 0.9981917 1.0039409 0.9717798 0.9820584
1.0052361 1.0044713 0.985369 0.9962637 0.9979354 0.98765373 1.0052247 0.98619723
1.0026999 0.9978689 1.0295191 0.9913316 1.05505 1.0020629 1.0002549 0.99021196
0.9892808 0.9952087 1.0159119 0.9947608 0.983818 1.0116059 0.98600847 1.0211985
00000000: 5323 7c3f 0c2b 833f e57f 803f 4ea7 7e3f
00000010: 7e89 7f3f 2381 803f 90c6 783f 2e68 7b3f
00000020: 94ab 803f 8492 803f 2541 7c3f 230b 7f3f
00000030: b278 7f3f e0d6 7c3f 34ab 803f 6c77 7c3f
00000040: 7858 803f 5674 7f3f 48c7 833f e8c7 7d3f
00000050: e10b 873f 9943 803f 5a08 803f 887e 7d3f
00000060: 8241 7d3f ffc5 7e3f 6709 823f a5a8 7e3f
00000070: 7fdb 7b3f 4d7c 813f 0d6b 7c3f a2b6 823f

bias f4 [32]
-0.0008455819 -0.0030673996 0.029347373 -0.0044551273 -0.0253239 0.0044990964 -0.006463362 -0.010225769
-0.0066454588 0.0008320885 -0.009795947 -0.009701772 0.0012941877 -0.008011246 0.0076485393 -0.00139064
1.9078878e-05 0.003544712 -0.0019307247 0.007707588 -0.018438173 0.01439101 0.010577937 -0.015191931
-0.005400112 -0.008646978 -0.00054993125 0.0087032085 -0.009221704 0.0136835165 -0.0071044983 0.010620069
00000000: 0aaa 5dba 6d06 49bb e769 f03c 51fc 91bb
00000010: 1174 cfbc 286d 933b 9cca d3bb fc89 27bc
00000020: 26c2 d9bb 8420 5a3a 2e7f 20bc 2ef4 1ebc
00000030: bca1 a93a 9a41 03bc 99a0 fa3b 2346 b6ba
00000040: 940b a037 664e 683b 5f10 fdba ef8f fc3b
00000050: a70b 97bc 45c8 6b3c 154f 2d3c 94e7 78bc
00000060: 6cf3 b0bb 0eac 0dbc 4329 10ba e797 0e3c
00000070: a116 17bc d430 603c dacc e8bb ccff 2d3c

running_mean f4 [32]
0.32827744 0.12198305 0.10922507 -0.3731894 -0.083592646 -0.41841936 0.29343387 -0.027958341
0.07469667 0.119575165 -0.45181572 0.020032927 0.11644115 -0.092125796 0.7115751 0.08167673
0.040780082 -0.83760905 0.07562615 -0.18429169 0.07757594 -0.50411576 -0.6243206 -0.16256955
0.017002637 -0.55122286 0.13179457 0.5920302 -0.5117459 0.1635521 0.1351178 0.3970138
00000000: fb13 a83e 40d2 f93d 65b1 df3d ae12 bfbe
00000010: 9f32 abbd 103b d6be f73c 963e e408 e5bc
00000020: 91fa 983d d3e3 f43d 6454 e7be 181c a43c
00000030: b378 ee3d 73ac bcbd c929 363f 2146 a73d
00000040: 0409 273d 8c6d 56bf e2e1 9a3d f6b6 3cbe
00000050: 22e0 9e3d bb0d 01bf 7ad3 1fbf a278 26be
00000060: 1d49 8b3c f11c 0dbf 28f5 063e 4b8f 173f
00000070: c801 03bf 347a 273e 525c 0a3e 6545 cb3e

running_var f4 [32]
0.5156624 0.32600394 0.31224164 0.09934322 0.123067394 0.15858509 0.14923587 0.118217394
0.087562695 0.21695517 0.14080216 0.16233616 0.27518868 0.22003293 0.5136958 0.13542718
0.23805377 0.34450364 0.14792858 0.15576953 0.24165457 0.2743937 0.25442445 0.089034855
0.19469336 0.31870738 0.3310239 0.3277133 0.33534974 0.19330016 0.20824295 0.12674572
00000000: 7302 043f fde9 a63e 23de 9f3e 7574 cb3d
00000010: c20a fc3d 2164 223e 4ad1 183e f61b f23d
00000020: 1254 b33d 7f29 5e3e 712e 103e 733b 263e
00000030: 88e5 8c3e 5050 613e 9181 033f 6cad 0a3e
00000040: 5ec4 733e c862 b03e 977a 173e 0c82 1f3e
00000050: 4c74 773e 557d 8c3e ec43 823e e857 b63d
00000060: b25d 473e 9d2d a33e f77b a93e 0aca a73e
00000070: f6b2 ab3e 7af0 453e a43d 553e a1c9 013e
